…
rs.Conv2D(32, (3, 3), activation='relu'),\n    layers.MaxPooling2D((2, 2)),\n    layers.Conv2D(64, (3, 3), activation='relu'), \n    layers.Flatten(),\n    layers.Dense(64, activation='relu'),\n    layers.Dropout(.15),\n    layers.Dense(2) \n])\n\nWe will run the summary for this model and observe what’s really happening:\n\nmodel1.summary()\n\nModel: \"sequential\"\n_________________________________________________________________\n Layer (type)                Output Shape              Param #   \n=================================================================\n conv2d (Conv2D)             (None, 158, 158, 32)      896       \n                                                                 \n max_pooling2d (MaxPooling2D  (None, 79, 79, 32)       0         \n )                                                               \n                                                                 \n conv2d_1 (Conv2D)           (None, 77, 77, 32)        9248      \n                                                                 \n max_pooling2d_1 (MaxPooling  (None, 38, 38, 32)       0         \n 2D)                                                             \n                                                                 \n conv2d_2 (Conv2D)           (None, 36, 36, 64)        18496     \n                                                                 \n flatten (Flatten)           (None, 82944)             0         \n                                                                 \n dense (Dense)               (None, 64)                5308480   \n                                                                 \n dropout (Dropout)           (None, 64)                0         \n                                                                 \n dense_1 (Dense)             (None, 2)                 130       \n                                                                 \n=================================================================\nTotal params: 5,337,250\nTrainable params: 5,337,250\nNon-trainable params: 0\n_________________________________________________________________\n\n\nFrom the above summary, we use 2D convolution layers with the first argument representing the dimensionalit
…
32, (3, 3), activation='relu'),\n    layers.MaxPooling2D((2, 2)),\n    layers.Conv2D(32, (3, 3), activation='relu'),\n    layers.MaxPooling2D((2, 2)),\n    layers.Conv2D(64, (3, 3), activation='relu'), \n    layers.Flatten(),\n    layers.Dropout(.15), \n    layers.Dense(64, activation='relu'),\n    layers.Dense(2)\n])\n\n\nmodel3.summary()\n\nModel: \"sequential_8\"\n_________________________________________________________________\n Layer (type)                Output Shape              Param #   \n=================================================================\n model (Functional)          (None, 160, 160, 3)       0         \n                                                                 \n sequential_3 (Sequential)   (None, 160, 160, 3)       0         \n                                                                 \n conv2d_12 (Conv2D)          (None, 158, 158, 32)      896       \n                                                                 \n max_pooling2d_8 (MaxPooling  (None, 79, 79, 32)       0         \n 2D)                                                             \n                                                                 \n conv2d_13 (Conv2D)          (None, 77, 77, 32)        9248      \n                                                                 \n max_pooling2d_9 (MaxPooling  (None, 38, 38, 32)       0         \n 2D)                                                             \n                                                                 \n conv2d_14 (Conv2D)          (None, 36, 36, 64)        18496     \n                                                                 \n flatten_4 (Flatten)         (None, 82944)             0         \n                                                                 \n dropout_5 (Dropout)         (None, 82944)             0         \n                                                                 \n dense_9 (Dense)             (None, 64)                5308480   \n                                                                 \n dense_10 (Dense)            (None, 2)                 130       \n                                                                 \n=================================================================\nTotal params: 5,337,250\nTrainable params: 5,337,250\nNon-trainable params: 0\n_________________________________________________________________\n\n\n\nmodel3.compile(optimizer='adam', \n              loss = tf.keras.losses.SparseCategoricalCrossentropy(fro
…
0.2)(title_features)\ntitle_features = layers.Dense(2, activation='relu', name=\"fake\")(title_features)\n\n\nmodel1 = keras.Model(\n    inputs = [title_input],\n    outputs = title_features\n)\n\nmodel1.summary()\n\nModel: \"model\"\n_________________________________________________________________\n Layer (type)                Output Shape              Param #   \n=================================================================\n title (InputLayer)          [(None, 1)]               0         \n                                                                 \n text_vectorization (TextVec  (None, 500)              0         \n torization)                                                     \n                                                                 \n embedding (Embedding)       (None, 500, 3)            6000      \n                                                                 \n dropout (Dropout)           (None, 500, 3)            0         \n                                                                 \n global_average_pooling1d (G  (None, 3)                0         \n lobalAveragePooling1D)                                          \n                                                                 \n dropout_1 (Dropout)         (None, 3)                 0         \n                                                                 \n fake (Dense)                (None, 2)                 8         \n                                                                 \n=================================================================\nTotal params: 6,008\nTrainable params: 6,008\nNon-trainable params: 0\n_________________________________________________________________\n\n\n\nfrom tensorflow.keras import utils\nutils.plot_model(model1)\n\n\n\n\n\nmodel1.compile(optimizer=\"adam\",\n   
…
utput Shape         Param #     Connected to                     \n==================================================================================================\n title (InputLayer)             [(None, 1)]          0           []                               \n                                                                                                  \n text (InputLayer)              [(None, 1)]          0           []                               \n                                                                                                  \n text_vectorization (TextVector  (None, 500)         0           ['title[0][0]']                  \n ization)                                                                                         \n                                                                                                  \n text_vectorization_1 (TextVect  (None, 500)         0           ['text[0][0]']                   \n orization)                                                                                       \n                                                                                                  \n embedding (Embedding)          (None, 500, 10)      20000       ['text_vectorization[1][0]',     \n                                                                  'text_vectorization_1[1][0]']   \n                                                                                                  \n dense (Dense)                  (None, 500, 32)      352         ['embedding[0][0]']              \n                                                                                                  \n dense_1 (Dense)                (None, 500, 32)      352         ['embedding[1][0]']              \n                                                                                                  \n concatenate (Concatenate)      (None, 1000, 32)     0           ['dense[0][0]',                  \n                                                                  'dense_1[0][0]']                \n                                                                                                  \n dropout_4 (Dropout)            (None, 1000, 32)     0           ['concatenate[0][0]']            \n                                                                                                  \n global_average_pooling1d_2 (Gl  (None, 32)          0           ['dropout_4[0][0]']              \n obalAveragePooling1D)                                                                            \n                                                                                                  \n dropout_5 (Dropout)            (None, 32)           0           ['global_average_pooling1d_2[0][0\n                                                                 ]']                              \n                                                                                                  \n fake (Dense)                   (None, 2)            66          ['dropout_5[0][0]']              \n                                                                                                  \n==================================================================================================\nTotal params: 20,770\nTrainable params: 20,770\nNon-trainable params: 0\n__________________________________________________________________________________
…
